server/weights.npz (npz, 12032 bytes, 1 tensors)

arr_0 f8 [4, 384]
0.882310775359563 0.8209507654527544 0.7362303039109735 -0.7909191323296791 1.7022655738245611 -0.004903293601685683 -1.138946862803091 -0.316359564548308
-0.15942364505393453 -0.6938491809579913 1.2734382883147752 0.8381884129666566 -0.3090849178206944 1.353573857289233 0.532726457777971 0.16142338999725672
0.16596980694482458 -0.6424951992214842 -0.6769804525543491 0.3991790862820999 -0.2953196341269327 0.3313069297395181 -0.4758097657418589 -1.3590556557876006
0.16930658050276443 0.7435830696002761 -0.28453656703814373 -2.374652922870046 -0.35042151259011683 -0.7885317533961518 1.1692383062287937 1.4573907128525951
0.30958473904954076 -0.762552867574256 -1.8611354230081425 0.359609804237994 0.13744149936576402 -1.339205769392099 0.7748072180935689 -1.2144690118398636
-0.2921865218850643 0.13290537938961944 0.028357626496142634 -0.9227058568499935 -0.09966106807508628 1.0961600103093976 1.006569783568998 -0.31696782574817933
-1.4519620946842002 -0.9372411216215009 -0.9002525593786483 -0.2544760330170035 -0.9386678340999116 -0.41724552523784536 1.9307737778208067 -3.181488051024197
-0.33456918779225014 0.6633077693698669 -0.31282146824227275 0.8923692511637858 -1.4937891606843088 -0.7070612644671342 -0.5050027856784403 0.21162087638449545
0.7609216878723726 1.2301724893045154 -1.6206814464535466 -0.38133953791142655 -0.3854606987928168 1.1207066958652627 0.5954082305103626 -0.7104781384444522
-0.5735970335819057 -1.0767885246910849 -0.018998817406244865 0.002590425299512026 2.339386039497679 -0.7217676901506485 0.7280325585760866 -1.2128240083843649
-0.5716761699959959 -1.0468552138410834 -0.9980224956429296 -1.8819599301838665 -1.3078167902462277 -0.46608762788420305 -0.2139040128907289 0.5887071536803976
-1.107384189612361 -0.5305940262854474 -0.8602592712209345 0.5933596115438942 0.5046368976477168 -0.6257991964345917 1.5645237385482311 -0.6628173426344091
-2.0000856122868256 0.1936899957397833 0.8451246996040389 -0.033894043480225115 -0.5885509321813823 -0.41171999428901207 -0.9992445664883136 -0.05027464415916013
1.2847279420553812 -2.388500581950346 0.697157545551191 0.5683486064940986 0.14798764258793803 -1.5167130719115758 0.7009596908018417 -0.9015517095287172
0.4131275187595745 -1.3290712603264259 -2.1174819059251586 -0.9377535391135178 -1.0118915154819506 -0.757439953260295 -0.560125699564756 -0.13298856024223607
-0.5521270034607255 0.747924749875245 -0.6706774299772449 -1.2092450759131044 0.7639334941600191 0.21860597183348823 0.17124340179690065 -0.6517796686280904
2.561366858094771 1.191289049528306 -0.6907241259698375 1.1419527752632561 -0.3041094022817996 -1.773119659838129 1.4916308562828315 1.3224901622057916
1.4266629576339183 -1.0254576124770425 0.27202961413008603 0.4616118106868955 0.5624541111741341 0.5752982802613028 1.8798864514540192 -0.19904745238447283
0.45952342867726714 0.15355304725822105 0.13417765694184414 -1.427864227209791 -0.9535663584079843 -3.605322958856291 0.17660086900414904 -0.008417797640589999
-0.620652226501737 1.291471528898738 0.5933572951155217 0.3056415704502731 2.237832417874541 0.1325964554809135 -0.1497180258940578 0.2553340398037779
0.7983674524724472 0.6458746735325972 -1.2278841581441 1.0690923398614778 -0.30098722717199655 0.31796852480479093 0.4128275019492771 2.2836391050901184
-0.21480675656446507 0.5434322831257826 0.07888070245961111 -0.2848217037475651 0.14863248712595656 0.3942177482683303 0.6710333763227289 1.1289398374418351
-0.001506472549610212 0.7745511205965522 2.1626348835037863 -0.9635036884549767 0.9205967700794551 -0.3050473044371834 -0.3260364219579614 0.4567478567707346
-0.9630599825523021 0.2410024746760605 -0.047166638599346354 -0.7446537678665835 -1.7535033169926437 -1.7441331464045824 -0.3688884273768772 -0.8554051964424975
-0.6697391274185561 0.026363089556817872 -0.41071315739873865 0.04742056677805054 1.2638380463421321 -0.6177860015280131 -0.024642103189498003 0.46182995553821327
1.5203068256725616 0.3472248842528501 0.32813479304672555 0.46431558697147235 -0.2787159836595624 -0.3381876235582455 0.8493547725337375 -0.9656442255893493
0.1060133457974812 1.3226039726291863 1.0198528424261155 1.2779356333315595 -1.0142528360659913 0.5642170100075717 2.1370830028963885 1.9894312171819777
0.9785717886242872 0.5918817544918051 0.42548142972240177 0.5189121440018385 -0.6422440109424835 0.009406229778659323 0.29564437240804814 -0.41749006234782066
-0.3569835400823455 1.4161581181219325 -1.2472821636603584 -0.8858735167088343 -0.09299937425780483 -0.8195289292213606 -0.23827849074266574 0.177624978658775
-0.34964676103839687 0.584582667923537 0.6701756639155599 -0.02670453548711207 -0.2940429697535099 -0.5374680512507691 -0.5896806825375362 0.8316248230701563
0.03731033173696163 -1.8366830634859705 0.9968938023290032 -0.5767414122585589 1.0143112562911734 1.7821594419706575 -1.8987181257998407 -2.1751324247552164
0.32787655565267165 0.34526759344022667 -0.6342347296435742 1.2647599136363774 -0.27297414850562335 0.5199596199640365 0.9944022692220256 -0.629937350928256
00000000: bb7c a2ce e33b ec3f 28dd 278a 3a45 ea3f
00000010: 8fe5 b3da 328f e73f 965f e4a3 354f e9bf
00000020: 3dee 8ad3 7a3c fb3f c73f 97da 7915 74bf
00000030: ecef 7958 2039 f2bf 11c1 e02f 3c3f d4bf
00000040: 0e9e db76 fe67 c4bf 4b45 9232 0334 e6bf
00000050: 3094 9cd3 0060 f43f 6c7e b281 70d2 ea3f
00000060: bf82 6e1b 0cc8 d3bf fb71 9c0f 3da8 f53f
00000070: 95d9 3b5b 180c e13f 7d80 6c8a 85a9 c43f
00000080: 49c9 79a6 7f3e c53f f2c8 8f17 528f e4bf
00000090: 1912 f8e8 d2a9 e5bf c10a 3570 268c d93f
000000a0: 7547 9c52 84e6 d2bf 73d7 0afb 2134 d53f
000000b0: 1ba3 becd aa73 debf 43d3 b024 b1be f5bf
000000c0: 36e4 2089 d6ab c53f fa5b b9b8 6ecb e73f
000000d0: e179 7cdc d835 d2bf 0b9f 1808 4aff 02c0
000000e0: ffeb 185a 4e6d d6bf 5235 96f1 a63b e9bf
000000f0: c9ba e739 33b5 f23f e922 93ec 7851 f73f
00000100: 00be 6382 3cd0 d33f 757a 7645 d566 e8bf
00000110: 1df4 f3ef 35c7 fdbf 3b7b 21d7 d803 d73f
00000120: 09d0 71dc ae97 c13f 1375 6207 636d f5bf
00000130: ef54 cd81 38cb e83f f0b8 fd0e 776e f3bf
00000140: 8303 f518 2fb3 d2bf 046f f820 0b03 c13f
00000150: eb8c 9219 c809 9d3f baf2 df6e ce86 edbf
00000160: 0322 1144 6383 b9bf e263 3714 df89 f13f
00000170: 5c21 d9ea e81a f03f 0340 5e6b 3349 d4bf
00000180: 6934 fb9a 3c3b f7bf 2295 ba17 e1fd edbf
00000190: b07d 9574 dece ecbf 4c20 dbd7 5549 d0bf
000001a0: 5185 2820 9109 eebf fd20 5393 26b4 dabf
000001b0: 8e6f 7b0b 73e4 fe3f 121c de01 b073 09c0
000001c0: ad49 f4e1 9469 d5bf 8f0a 1437 d139 e53f
000001d0: bc95 e555 4405 d4bf 058b b6f5 498e ec3f
000001e0: 6322 8476 8fe6 f7bf b3f3 e4f1 3ea0 e6bf
000001f0: ec16 1c9a fb28 e0bf 3c73 9c93 6416 cb3f
00000200: a453 8770 7859 e83f 6307 2059 c9ae f33f
00000210: 0508 1cab 4fee f9bf c715 00f3 dd67 d8bf
00000220: 5357 cd59 63ab d8bf 7164 f224 6aee f13f
00000230: a7f5 b98f 950d e33f 4d8a 24a6 3cbc e6bf
00000240: 0924 8a2a e85a e2bf cc19 a49a 863a f1bf
00000250: 1ea3 b00d 6d74 93bf ee5a 36fe 8338 653f
00000260: 58e4 2207 10b7 0240 3835 108e b818 e7bf
00000270: 693d b0ef 0a4c e73f 1908 bd25 ba67 f3bf
00000280: 7f21 c1d2 2b4b e2bf 3c83 b140 ebbf f0bf
00000290: 8cad 6edf ccef efbf ba5a 0804 821c febf
000002a0: 9d46 744c d1ec f4bf bd4d b533 61d4 ddbf
000002b0: e4a6 ece9 3461 cbbf 5050 7f62 b0d6 e23f
000002c0: 80e1 e77b d8b7 f1bf b02a cb52 a0fa e0bf
000002d0: ce30 7f73 3e87 ebbf 3025 cb4b cdfc e23f
000002e0: 190f 7847 fc25 e03f be96 5109 8c06 e4bf
000002f0: bd15 2e0b 4a08 f93f e6c3 3ab7 cc35 e5bf
00000300: c3c6 afe2 2c00 00c0 48e3 a172 d5ca c83f
00000310: e0ea 3af4 420b eb3f a7b4 8d60 8f5a a1bf
00000320: affa b7c3 68d5 e2bf c628 a5d1 9e59 dabf
00000330: 74bc b8bd cff9 efbf 3b98 f620 99bd a9bf
00000340: f729 f6e2 3e8e f43f 30a1 6f31 a61b 03c0
00000350: f3a9 4957 1d4f e63f 86d1 b36a e92f e23f
00000360: 5f4c 9052 42f1 c23f 256a 14ed 7444 f8bf
00000370: a1dc 7904 436e e63f f984 82f8 82d9 ecbf
00000380: 9599 8967 ae70 da3f ef7c d239 e043 f5bf
00000390: fc8f 7e5a 9af0 00c0 156d c6b5 1302 eebf
000003a0: 8784 6128 b530 f0bf bdf9 7db6 f23c e8bf
000003b0: b3f3 28bb 8cec e1bf 89c3 7de6 c405 c1bf
000003c0: 0046 e33f 06ab e1bf 3aa9 92e2 ffee e73f
000003d0: f45c 7d83 3076 e5bf 4855 5e5d 1159 f3bf
000003e0: ae8f b7a7 2472 e83f b618 decd 47fb cb3f
000003f0: 0fce 2fc5 4deb c53f 5b92 1e09 61db e4bf
00000400: 3e9a 44e8 ad7d 0440 77e9 3c1b 850f f33f
00000410: 0728 737b 691a e6bf 6050 f545 7045 f23f
00000420: 4436 4d48 8776 d3bf fa63 6eb8 b25e fcbf
00000430: 1e07 1751 b8dd f73f 2e4a bf71 eb28 f53f
00000440: ac3c 9789 9cd3 f63f c75e d03d 4668 f0bf
00000450: addc 0ee6 ee68 d13f 6a3e 9643 0c8b dd3f
00000460: 04cc 9fc3 9fff e13f d55a 65f0 d768 e23f
00000470: 1d04 d3d0 0314 fe3f 73f5 2b0d 637a c9bf
00000480: a489 7af4 d468 dd3f 046d 1652 a0a7 c33f
00000490: fca5 35c4 bb2c c13f ece8 ef28 88d8 f6bf
000004a0: 0eb3 7d98 9d83 eebf 1f72 3e90 b3d7 0cc0
000004b0: 3bb4 6876 db9a c63f aec0 90ac 593d 81bf
000004c0: 2777 e00e 62dc e3bf f95c c50c dea9 f43f
000004d0: 6aa7 2b70 c8fc e23f bd72 58a9 a18f d33f
000004e0: 1b99 c5ae 14e7 0140 d592 edaf ebf8 c03f
000004f0: a817 6bd4 f529 c3bf 86d1 a095 6457 d03f
00000500: 7beb 51e6 398c e93f cb63 045d 01ab e43f
00000510: 2016 e8db 69a5 f3bf 23bf c191 001b f13f
00000520: aaea 4dee 5f43 d3bf 8b69 cca7 9859 d43f
00000530: c4bc f00a c46b da3f 83d4 4194 e444 0240
00000540: 2ebd 33ad c97e cbbf 09b5 7319 cc63 e13f
00000550: 397b 5995 8631 b43f d05a b2cf 843a d2bf
00000560: c020 aaab 6306 c33f e12c 1414 dd3a d93f
00000570: 1f94 bafc 1a79 e53f 856d 0f38 2310 f23f
00000580: ba31 4e95 9aae 58bf e15a 816e 1fc9 e83f
00000590: 44b3 8e84 134d 0140 f7a9 efaf 05d5 eebf
000005a0: 786c 895b 8775 ed3f 269a 1221 e585 d3bf
000005b0: b350 67de c7dd d4bf 244c d65c 5b3b dd3f
000005c0: 40c0 242b 63d1 eebf 4c8f 7e49 2bd9 ce3f
000005d0: e32d 7ec4 3926 a8bf 9b90 7a23 34d4 e7bf
000005e0: 2793 7e7e 590e fcbf 10d6 7a28 f8e7 fbbf
000005f0: 4238 dd34 de9b d7bf 4391 f1b7 7a5f ebbf
00000600: 25a8 23c0 806e e5bf ff48 dffd ecfe 9a3f
00000610: 7d20 c4d6 1f49 dabf c463 f02e 8247 a83f
00000620: 0aae 473e ae38 f43f 59a9 0f26 e7c4 e3bf
00000630: 21d6 368d c73b 99bf 7862 d63a 9f8e dd3f
00000640: 3a63 0240 2d53 f83f cd4b 8eb8 ee38 d63f
00000650: c02f 3413 2900 d53f 7031 44b9 58b7 dd3f
00000660: ba2d ac90 7bd6 d1bf 500e c6b3 dda4 d5bf
00000670: 497c 570f ea2d eb3f b147 0fb8 8ee6 eebf
00000680: bec4 23cd b023 bb3f 5508 80c8 6229 f53f
00000690: b33e cf36 5151 f03f 62d5 78a2 6c72 f43f
000006a0: 7b75 8c2e 613a f0bf a78a bad4 100e e23f
000006b0: 3e38 32f9 be18 0140 5302 f7d3 b5d4 ff3f
000006c0: c7be 9dc8 7550 ef3f 6286 5401 b2f0 e23f
000006d0: 6aa2 6d76 163b db3f 4286 ffa3 ed9a e03f
000006e0: 3b98 e14f 438d e4bf b259 39ca 9243 833f
000006f0: f74b af5f d6eb d23f c916 0c3d 28b8 dabf
00000700: 6f4b 777d d1d8 d6bf 16c7 346a 95a8 f63f
00000710: c0e2 5c24 def4 f3bf c205 d56a 1359 ecbf
00000720: 3259 fc96 cece b7bf 6a36 a4bb 9439 eabf
00000730: 0d3d 8ada e87f cebf bb64 2551 6abc c63f
00000740: c4fb f3ce 9c60 d6bf d747 11b6 e6b4 e23f
00000750: 15f5 e23b 1472 e53f 07bf 490a 6f58 9bbf
00000760: 5571 ad9a 99d1 d2bf 7d8a d832 f032 e1bf
00000770: 189d d205 aade e2bf 7519 34a9 ab9c ea3f
00000780: 40f0 39fd 561a a33f 1ea1 acc7 0d63 fdbf
00000790: 2fd2 d2d4 8de6 ef3f 97c7 fc67 aa74 e2bf
000007a0: a4c3 9b70 9e3a f03f 6858 789e b983 fc3f
000007b0: a91f ea41 2661 febf ba57 26d4 ab66 01c0
000007c0: 77d0 e9f2 edfb d43f 0371 8c3f dd18 d63f
000007d0: 48cf b9a1 a64b e4bf aac2 25e4 743c f43f
000007e0: df0b 1f90 6878 d1bf 578e 5f5b 82a3 e03f
000007f0: a40e 2cb5 24d2 ef3f e680 1860 7228 e4bf
